data/5Mix/mix5mlp.pt (torch, 10065 bytes, 19 tensors)

in_linear.weight f4 [1, 5]
000000 a5 40 0e c1 af 07 7b 3f 31 62 b6 bf 07 cd 09 bf
       -8.890782 0.980586 -1.4248716 -0.5382847
000010 35 c0 9b 3e
       0.3042008

in_linear.weight f4 [2, 5]
000000 9f 74 43 c1 f3 ab 88 3f ae 3a b3 3f e4 f8 ae be
       -12.215972 1.0677475 1.4002283 -0.34174263
000010 58 c0 17 40 24 9a 32 3e 60 ec ea 3d 6a 66 0d be
       2.3711147 0.17441612 0.11470866 -0.13808599
000020 65 60 16 3e d1 7e dc 3d
       0.14685209 0.10766376

in_linear.bias f4 [2]
000000 33 d0 c2 be 94 b3 3a 3e
       -0.38049468 0.18232566

out_linear.weight f4 [1, 2]
000000 48 6e cc bf 9f 9d b0 3f
       -1.5971155 1.3798102

in_linear.weight f4 [3, 5]
000000 a7 93 7e 3e 86 f8 21 be 21 8e e2 bd 3d da e1 bf
       0.24861012 -0.1581746 -0.11062265 -1.7644726
000010 61 92 03 3f d8 ef 6a 3e 79 2e c8 3e 6a 10 43 bd
       0.5139523 0.22943056 0.39097956 -0.047623076
000020 de 7b cf 3f 2b 3e 58 be 42 f8 39 c1 8d 30 0a 40
       1.6209676 -0.21117465 -11.62311 2.1592133
000030 52 64 0d 40 36 68 2a 40 2c 1d 0c 40
       2.209248 2.6626105 2.1892805

in_linear.bias f4 [3]
000000 04 8f ef 3d 7d 07 92 3d 77 75 df be
       0.116972 0.071303345 -0.43644306

out_linear.weight f4 [1, 3]
000000 9d be 15 3f 38 f9 1f 3f c5 42 ea bf
       0.5849398 0.6248965 -1.8301626

in_linear.weight f4 [5, 5]
000000 27 21 1e be 8c 29 15 c0 5d 14 ae bf 60 22 c3 3f
       -0.15442334 -2.3306608 -1.3599964 1.5244865
000010 af b9 7e 3e 37 90 1f 3f ec b5 4a bf 5a 70 23 3f
       0.2487552 0.6232943 -0.7918384 0.6384331
000020 a8 ec f7 bf 50 5c b6 3e 1a 16 09 3e a7 57 b1 3f
       -1.9369097 0.35617304 0.13387337 1.3854874
000030 5a d3 e5 bb 62 8c 1a 40 44 60 6a bf d6 d8 95 c1
       -0.0070137205 2.4148183 -0.9155314 -18.730877
000040 65 57 51 40 96 e3 82 40 9f cd 4f 40 e0 a3 e4 3f
       3.2709591 4.0902815 3.246925 1.7862511
000050 e7 8d bb be 6f d6 d7 3f dd 0e d8 3c 18 5e e6 bf
       -0.366317 1.6862315 0.026374275 -1.7997465
000060 62 7a 3e 3e
       0.18601373

in_linear.bias f4 [5]
000000 4e ee 12 3e 40 26 59 3d b8 dd 89 3d 6e 04 32 bf
       0.14348719 0.053014994 0.067317426 -0.6953801
000010 49 37 09 3e
       0.13399996

out_linear.weight f4 [1, 5]
000000 4e 07 af 3e 13 22 b2 3e 00 1b fd 3d a4 4f af bf
       0.3418526 0.34791622 0.123586655 -1.3696179
000010 ce c5 09 3f
       0.5381745

in_linear.weight f4 [10, 5]
000000 99 7a 98 3e 0c 4d f0 bc 61 df 31 3e dd 06 30 be
       0.29781035 -0.029333614 0.17370369 -0.17190118
000010 ca c3 74 3e fd 5e 25 3e 36 ee 26 3f 97 08 c5 3d
       0.23902813 0.16149516 0.6520723 0.09620779
000020 d1 c4 94 bf 11 58 c6 3e 8b b5 4d 3e 23 05 a9 3e
       -1.1622564 0.38739064 0.20088784 0.33011732
000030 16 8b 14 3e e3 72 00 bf dd 94 86 3e c0 69 d1 be
       0.14506182 -0.50175303 0.2628545 -0.40900993
000040 bb 05 09 40 e1 36 eb 3d bd 2e ef bf e0 09 bf 3e
       2.1409748 0.11485077 -1.8686138 0.37312222
000050 c5 31 97 c1 53 ea 51 40 6e 97 83 40 32 9d 49 40
       -18.899302 3.279927 4.112235 3.1502194
000060 19 5c d4 3f f8 ad 94 3d b4 63 06 3f f2 a0 e0 3c
       1.6590606 0.072597444 0.52495885 0.027420495
000070 fd 2f 09 3f 3e 7b 1b bd 3c 5c 18 3e ef 6b b6 3f
       0.5358885 -0.03795933 0.14878935 1.4251689
000080 8e 41 cd bc d0 9e 37 40 1b 37 86 bf da 2b 38 3e
       -0.025055673 2.8690681 -1.0485567 0.17985478
000090 4d 85 5e bd 1a e9 d1 3d 78 ce 87 bd ba 2a c5 3d
       -0.054326344 0.10249539 -0.06631178 0.0962729
0000a0 cb c8 71 bd 2c 67 46 c0 db 9e d1 bf a9 a5 18 40
       -0.05902938 -3.100047 -1.6376604 2.385111
0000b0 9f af fd 3e 80 36 42 3f 01 ac 99 bf d7 75 41 3f
       0.4954805 0.7586441 -1.2005616 0.75570434
0000c0 b6 be 17 c0 70 f7 e4 3e
       -2.371015 0.4472003

in_linear.bias f4 [10]
000000 5c b7 ca 3d ce 48 bd 3d ed c0 e7 3d fb 76 0e 3e
       0.09898254 0.09242402 0.113160945 0.13912575
000010 80 40 e1 be f2 81 2e 3e 22 e0 41 3e be d9 49 3e
       -0.43994522 0.17041758 0.18933156 0.19711968
000020 c0 0d cd 3d 39 5d 42 3e
       0.10012388 0.18980874

out_linear.weight f4 [1, 10]
000000 ac 1a 32 be 27 e8 44 3e a5 f6 cf 3d d4 55 d6 3e
       -0.17392987 0.19229184 0.101544656 0.41862357
000010 bd a9 5e bf 4d 02 32 3e 7c 04 a6 3e d3 de 15 3e
       -0.8697775 0.1738369 0.32425296 0.14635782
000020 db 8f 95 3e e7 f3 8c 3e
       0.29211316 0.27529833

in_linear.weight f4 [20, 5]
000000 83 ad 83 3d 4a e6 05 be c7 68 71 3d 43 3f ec 3e
       0.06429579 -0.1307613 0.058937814 0.46142015
000010 7a d6 ca bd be a4 13 3e 01 23 9a be 8a c0 18 3e
       -0.099041894 0.14418313 -0.3010483 0.14917198
000020 86 7c be be 2d ab 83 3d 46 aa 2b 3e 75 31 52 be
       -0.3720438 0.064291336 0.16764173 -0.20526679
000030 c9 3c 24 3c c5 8c 8a 3d a2 7d 8b 3d 67 dc c6 3e
       0.010024258 0.06765131 0.06811072 0.3884003
000040 e9 57 dc be 28 a9 81 3d 92 3c 81 bf 3f 49 a6 3e
       -0.4303582 0.06331092 -1.009661 0.32477757
000050 b8 50 34 bf 59 ca 23 40 cc d2 98 3e 57 94 84 bf
       -0.7043567 2.5592253 0.29848325 -1.035777
000060 33 e5 26 3e 6f 01 a5 3e d2 a0 14 bf b1 62 96 3e
       0.1629837 0.32227656 -0.5805789 0.2937217
000070 ca 83 f4 be 5d 74 41 3e fe 20 68 3d 08 b3 86 3e
       -0.47756797 0.18892045 0.05667209 0.26308465
000080 65 c4 9a 3e aa 4d 35 3f 7e 62 d1 bd 25 ec 98 be
       0.30227962 0.7082163 -0.10223864 -0.29867664
000090 84 2e 52 c0 43 f2 db bf 41 93 09 40 8d 73 e6 3e
       -3.284089 -1.7183307 2.1496127 0.45010033
0000a0 41 7e 5b 3e 96 b2 95 be bd 15 83 3e a3 83 7c be
       0.21434881 -0.29237813 0.25602522 -0.2465959
0000b0 dd 92 ec 3d c3 4d 76 3d 0f 3d c4 3d 60 c9 90 bb
       0.115514494 0.060132753 0.095819585 -0.004418537
0000c0 f2 04 13 be 44 96 48 3d c2 20 ae c1 ee 45 7b 40
       -0.14357355 0.04897143 -21.765995 3.9261432
0000d0 31 80 8e 40 1b 0c 7b 40 30 21 b7 3f 0f 74 db 3e
       4.4531484 3.9226139 1.4307003 0.42861983
0000e0 56 4e ea be 2f 38 92 3e 9b d7 36 bf 1c bf a8 3e
       -0.4576289 0.2855849 -0.7142274 0.32958305
0000f0 00 4e 42 3e fa 18 1f be 0f 5c 4e 3d 5a 3c 7f bd
       0.18975067 -0.15536872 0.050380763 -0.062313415
000100 c1 36 e8 3d d9 af ff 3e 60 77 1d bf b9 91 76 3e
       0.113385685 0.4993885 -0.61510277 0.24079026
000110 ea c9 86 bf 10 b5 c4 3e f8 92 b6 3e ac 52 5e bf
       -1.0530369 0.3841939 0.35659003 -0.868449
000120 57 87 a0 3e c1 23 15 3e e6 7b f1 3d c2 23 36 3e
       0.31353256 0.1456442 0.1179121 0.17787078
000130 ba ba 93 be 2c 03 c4 3e b1 7d 6b 3f af 69 10 be
       -0.288534 0.3828367 0.91988665 -0.14102815
000140 29 b5 fc bc bc 49 c2 3e 13 fb af 3d e3 1c e1 3d
       -0.030848103 0.3794688 0.085928105 0.10991838
000150 c8 99 9e bc 84 ea b2 3d 15 0d 2f 40 46 b2 3d bf
       -0.019360438 0.087361366 2.7351735 -0.7410015
000160 f9 11 62 40 59 c6 bf bf 2a 53 1d 3e 6f f8 e2 3f
       3.532347 -1.4982406 0.15363756 1.7732066
000170 e9 81 68 bd 72 e7 99 c0 9f 89 37 3f 40 4b 53 3e
       -0.056764517 -4.8095026 0.7169437 0.20634174
000180 3b bf b4 be 5b 6a 33 3e 4d 0d d1 3d f5 cd 8a 3d
       -0.35302147 0.1752104 0.10207615 0.067775644

in_linear.bias f4 [20]
000000 ad 19 50 3e 72 5c 52 3e fb ad 17 3e c5 f5 bc 3d
       0.20322295 0.20543078 0.14812462 0.09226564
000010 ad 4b e0 3d 80 c1 08 3e 62 99 02 3e ea 4d 1f 3e
       0.10951934 0.13355064 0.12753823 0.15557066
000020 db 83 14 3e 6c 5e 35 3e 9c 7b f9 be 76 a7 41 3d
       0.14503424 0.177118 -0.4872712 0.047278844
000030 d3 05 04 3e a9 aa 55 3d 68 8a f9 3d 88 47 13 3e
       0.12892847 0.052164707 0.12184602 0.14382756
000040 d5 0f 31 3e 2f cd 96 3d a2 2d 22 3d 8a 22 13 3e
       0.17291196 0.073633544 0.0395943 0.14368644

out_linear.weight f4 [1, 20]
000000 83 f6 1e 3c e8 c4 3d 3e 37 01 2f 3d 4e 5f 0c 3d
       0.009702328 0.18532145 0.042725768 0.034270577
000010 7d 5a 03 3f 5e 04 3b bf ce 00 46 be 63 66 18 3f
       0.5130995 -0.7305354 -0.19336244 0.5953123
000020 06 fc 04 be 1d ba f3 3d 45 3d 80 be c4 8f 41 bf
       -0.12986764 0.11900733 -0.25046745 -0.75609994
000030 ab 1f 5b 3e d4 43 07 bf 76 b3 a0 3e 65 08 dd be
       0.21398799 -0.5283787 0.31386918 -0.43170467
000040 07 99 25 bf 42 34 90 3e 04 6f 05 3f 21 75 87 3d
       -0.64686626 0.2816487 0.5212252 0.066141374

in_linear.weight f4 [30, 5]
000000 ce b6 7a 3d 47 49 0e 3f a2 40 07 bd 5c 28 d7 be
       0.061209492 0.5558056 -0.033020623 -0.4202298
000010 a2 af 74 3e 78 1f df 3d bd ad 0c be 72 06 f4 3d
       0.23895124 0.10894674 -0.13738151 0.11915292
000020 22 b7 da 3e 84 ee 77 ba 47 db 9a bd 48 46 11 40
       0.42717844 -0.0009457844 -0.07561355 2.2699146
000030 42 79 b7 be 96 2f 54 40 ed 80 ab bf 41 15 60 bc
       -0.358347 3.3154044 -1.339872 -0.013676942
000040 fe cf b3 3e 5f a0 21 be 32 a8 11 bf 67 5c 0e 3e
       0.35119623 -0.15783833 -0.5689727 0.13902436
000050 1b c2 67 be c1 be 8d c0 82 07 d9 bf ef 70 39 40
       -0.22632639 -4.4295354 -1.6955416 2.897518
000060 91 a9 2a 3f a5 35 ef be a0 70 15 40 74 1e 3d 3e
       0.6666499 -0.46720615 2.334999 0.18468648
000070 ec e0 5c c0 0b 8c 06 3f 35 32 9d bd f3 2a 9f 3f
       -3.4512281 0.5255744 -0.07675592 1.2434982
000080 2a 57 d7 bd 9d 5c f9 bf a2 f6 ce 3e f4 fc 5e 3f
       -0.10514672 -1.9481388 0.4042254 0.87104726
000090 91 77 0f bf 40 18 59 3e 52 08 46 c0 a4 3f 13 3f
       -0.5604182 0.21200657 -3.0942578 0.5751898
0000a0 39 8b 0a 3e b0 db aa be 27 23 6f 3e 4b 17 0b 3f
       0.13529672 -0.33370733 0.23353253 0.5433242
0000b0 5b 22 73 bd 9e ee 7e 3e 08 70 87 be ce cf 39 3c
       -0.059358936 0.24895713 -0.2645266 0.011341048
0000c0 cc 54 17 3e 0c 9a 2a 3e 3d 55 59 3e d5 7e c3 be
       0.14778441 0.16660327 0.21223922 -0.38182703
0000d0 0a 93 56 3e 91 63 97 bc 8e 8b d6 3d 1a c3 c6 3d
       0.20954528 -0.018480094 0.10475837 0.097051814
0000e0 41 68 bd be 74 37 1d 3e 86 d9 b8 3e cc 9c 82 bd
       -0.36993602 0.15353185 0.36103457 -0.06377563
0000f0 71 09 34 bc db b5 d4 bd 89 10 b3 bd ae aa ec 3e
       -0.010988579 -0.10386249 -0.08743388 0.46223968
000100 d6 9e fe bd 4b d8 e1 3e 7c ed b6 bd 48 7a a6 3b
       -0.12432639 0.4411033 -0.08932015 0.005080495
000110 c1 fa 8e bf c2 21 e8 3e 08 59 9a 3e 74 37 ac be
       -1.1170274 0.45338255 0.3014605 -0.33636057
000120 86 15 4c 3e 28 fe a1 3d 89 96 3f 3e e0 2b 60 3e
       0.19930086 0.079098046 0.18709768 0.21891737
000130 70 64 0c bf 9c 5a 45 3e 9d 11 78 3e d4 1f 34 3d
       -0.54840755 0.19272846 0.24225469 0.043975666
000140 52 c5 24 3e eb ed be be cd 68 54 3d 4e d6 10 3e
       0.16090897 -0.37290892 0.05185776 0.14144251
000150 69 82 39 3d 15 0e 9b 3e 17 1f 6c 3d 28 94 17 3e
       0.045290384 0.3028418 0.057646837 0.14802611
000160 55 98 0f bd 2c 00 96 3e cc a2 ab 3e 18 8f 76 be
       -0.035057385 0.29297006 0.33522642 -0.24078023
000170 87 d3 12 3d 06 6c e0 be 69 f0 98 3e 6e d5 82 3e
       0.03584626 -0.43832415 0.29870918 0.2555346
000180 72 7b 21 be ef 56 01 3e c3 2b 79 bd fe 1e 52 3e
       -0.15769747 0.12630819 -0.06083275 0.20519635
000190 c4 33 34 3e 68 50 ac bd 19 3c 44 bd 93 ad 87 bd
       0.17597872 -0.08413774 -0.047908876 -0.066249035
0001a0 5c be 1d 3e dd f7 32 bf 23 bc 1e 40 f1 ee 96 3e
       0.15404648 -0.6990946 2.480233 0.29479173
0001b0 bc c5 2b c0 34 f5 c1 3e 96 e4 6a 3e 4d b0 f2 be
       -2.6839437 0.37882388 0.22938761 -0.47400132
0001c0 fb ce 99 3e 4b 68 f3 3e a9 99 eb 3c f1 b4 f3 3d
       0.30040726 0.47540507 0.028759794 0.11899746
0001d0 eb 7e ab 3d fb 9a b5 bc 55 8e 6f be d4 ee 1d 3e
       0.08373817 -0.022168627 -0.23394139 0.15423137
0001e0 57 c8 aa c1 e0 75 7c 40 c2 22 92 40 a4 bf 7e 40
       -21.347822 3.9446945 4.566743 3.9804468
0001f0 6a 3e cb 3f 2b 2e 83 3e 20 73 f2 bd 2f 49 93 bc
       1.5878422 0.2562116 -0.118383646 -0.017979233
000200 0b 29 aa be f2 21 7a 3e c3 a3 30 3e d4 64 0f 3e
       -0.33234438 0.24427012 0.1724997 0.14003307
000210 59 25 c6 3d 0c 9a ae be 82 94 6a 3e 67 63 ea 3d
       0.09675092 -0.34101903 0.22908214 0.11444741
000220 06 e6 95 be f6 a0 03 be e6 e4 40 be 63 3d 95 3d
       -0.29277056 -0.1285437 -0.18837318 0.07287099
000230 91 ab 39 3e 22 84 03 bf 41 2d 9e 3d fe b4 58 3e
       0.18131854 -0.51373494 0.07723475 0.21162793
000240 ef ba 12 3d 04 26 bd 3d e3 2e 30 be ba 67 b1 bd
       0.035822805 0.092357665 -0.17205386 -0.086623624
000250 d3 8f 11 be 48 b3 9d 3d
       -0.14215021 0.07700211

in_linear.bias f4 [30]
000000 e4 d8 27 3d 60 d7 02 3e ee 12 0a 3e c3 ea 26 3e
       0.040978327 0.12777472 0.13483784 0.16300492
000010 ca 93 0d bc 4e 43 b8 3d 26 35 80 3d 73 4b 3a 3d
       -0.008641193 0.08997212 0.06260137 0.04548211
000020 b9 b4 23 3e ec 00 82 3d 62 74 e6 3d 60 bf 4c 3e
       0.15986909 0.06347832 0.11252667 0.19994879
000030 01 cd 69 3e 03 8d 89 bc a3 33 4c 3d 49 ac 0e 3e
       0.22832109 -0.016790872 0.049853932 0.13932909
000040 2d 55 16 3e 13 6d f9 bc 06 e6 13 3d 6e c3 4e 3d
       0.1468093 -0.030447518 0.03610804 0.050479345
000050 d6 78 c0 3d ec 52 02 3e cc 82 b6 3d 72 40 e3 3d
       0.093980476 0.12726945 0.08911666 0.11096276
000060 36 a4 e8 be 4f 1c 80 3d 1a a0 1a 3d 92 00 42 3e
       -0.45437783 0.062553994 0.03775034 0.1894553
000070 5c d5 20 3e 03 7a 2d 3e
       0.1570639 0.16941075

out_linear.weight f4 [1, 30]
000000 d8 d2 3a bf 04 5f 31 bf 31 e6 6e 3f a2 65 37 bf
       -0.7297797 -0.6928561 0.93319994 -0.71639454
000010 31 0f 0d 3f 24 59 1e 3f 4d 4f a9 3e 1d 67 d1 3e
       0.55101305 0.6185477 0.33068314 0.40898982
000020 a0 5d 7f 3c 7f e2 22 bf c0 ba 41 bf 11 c7 88 bc
       0.015586287 -0.63626856 -0.7567558 -0.016696485
000030 1b 90 0b 3e c4 e2 22 bf 01 86 bf 3d 3d 73 30 3e
       0.1362919 -0.63627267 0.09351731 0.1723146
000040 c2 d1 68 3e ea 09 51 bf 23 82 5a be ad bf 87 be
       0.22736266 -0.8165575 -0.21338706 -0.26513425
000050 b6 c0 05 bd 96 fa f5 bc a3 7f 30 bf 6a 59 61 be
       -0.032654487 -0.030026715 -0.6894476 -0.22006765
000060 89 ed 71 bd 3b 19 5d bd 6d 59 31 bf 48 7b 91 3d
       -0.05906442 -0.05397914 -0.6927708 0.07103592
000070 03 c4 10 bd 2e 99 25 3e
       -0.03534318 0.16171715
